model/model.pth (torch, 17103 bytes, 4 tensors)

linear1.weight f4 [256, 11]
00000000: b281 07bf 2a3f 073f d322 52bd 3e96 793e
00000010: c389 473d 7f05 01bc 5b9e 733d 3422 9d3e
00000020: 45f2 4ebc 4dd5 21bd 165f b3bd e143 063f
00000030: 2a0f 783e 8ec5 f93d 3958 acbd d82e 95bd
00000040: 655a 6dbc b759 c1bd afc7 e53d 73da c53d
00000050: b5cf 913d ffe4 203e 594f 163e ff6e 8ebe
00000060: 9383 693c 76a2 bcbc 738e e8bd 003b 013e
00000070: 03ed 0f3d 8bd4 22be 5154 12be 67ec 853e
00000080: e49c 1f3d 9aed 3d3e 4abb 9bbe 95e6 83be
00000090: ab39 abbd f5d7 44be b8da 15bd cfed e73d
000000a0: a2b8 5fbe fbd8 39be 5a2e 473e 7679 173e
000000b0: cb14 4c3e 53f8 8bbe 2593 19bd f2be 2a3c
000000c0: 4e5d 0e3d cbdb c23d 46c3 96bc 2bf4 373d
000000d0: c5d6 413e 7372 44bd 8911 69be d39f 1f3f
000000e0: 1629 1f3e cafb 193e 1588 b33d a8f0 8f3e
000000f0: 73c0 4c3e 65fd 083e fdba 1b3e e071 4d3e
00000100: 0aed 5ebe 3203 31be 4a28 fb3e 816f 97be
00000110: fcc0 81bd 01a0 44be 427f 813e d44c cbbd
00000120: 99a4 5abe 6089 bbbd e535 713e 7b9f 20be
00000130: 12b6 eebc c5de 653e b222 b83e f8aa abbe
00000140: 75f3 b4bd 7afc ae3d 5af0 4cbd f082 473e
00000150: 9570 333e 0c3d 503e f7ae 5cbe 89a8 113c
00000160: 70f9 0d3f 9f9d d5be ef59 f43e ed69 68bd
00000170: fc5c 15be 0a9d 5e3d 651e 653e fb5b 31bd
00000180: e9f3 8d3e 8866 2dbe 4225 523d 9fb3 c63d
00000190: 69bb e8bc 2b60 c03e 78c3 433e 3467 30be
000001a0: 59dc d33d 22a2 a9be ebea 7f3e a3ba 07bd
000001b0: 3ee7 163e 5003 4c3e ad4e 803e bae3 0d3e
000001c0: 9a36 77be 101b b53c 2126 5cbd cd8d 0abe
000001d0: b86e 4dbe 1822 89be 9147 08be dfaa 39be
000001e0: a5c5 0cbe 02b8 853e ed82 f3be a495 613e
000001f0: fa06 95be 82e8 4a3e 8f99 1fbd bbb5 303e
00000200: a443 fe3d 82d9 ba3d 9b37 2a3d 74d8 36be
00000210: 06bf 6fbe 1435 7fbd c0c6 72be e48a 2fbe
00000220: 8c96 73be 5b7c 393e ffc7 92be c5fa 18be
00000230: edfb 26be 4a69 423d fddb 19bd d62b a53e
00000240: 3d07 273c 9f47 ea3e a266 0cbe f7e1 4e3c
00000250: 369f 3ebe 9ba1 52be f2d3 eebb 2825 b93e
00000260: 7152 843d 5c01 0c3e b405 46be f328 ac3e
00000270: afdf af3e d512 1b3e 13df b73d 9e17 34be
00000280: 023e d5bd 2ccb 083e 7e02 9e3e e563 223e
00000290: 7e42 10be 9365 01bf 7162 1f3f 99ce 21be
000002a0: 3665 393e 9512 9fbe 8b85 74be 211a 7c3d
000002b0: 04db 843e b2f6 a3bd 9021 333e 6e49 923d
000002c0: 335e 1a3f 5ace e63c 928c 543d 33b6 593e
000002d0: 23ca 803e b1b3 6bbe f222 d2bc a353 2ebe
000002e0: 8fd7 74be dd86 8c3e c9c5 0b3d fb9e 99be
000002f0: 1758 d4be cfe7 aa3c 180a 233e 260e 00be
00000300: c71b b1bd adb8 063e 8e19 ab3e b85e a63d
00000310: ac46 a23e 081b de3d 1d17 bf3e 22a6 f6be
00000320: 5b82 a33e 9705 1d3e 45f3 663d 9f3e 64be
00000330: 350d 0ebe 40ec a73e 0c8f 9e3e 4196 f43d
00000340: 63ee b33c c7dc 34be 7615 783e 3920 1fbe
00000350: e466 b43d 7f55 2ebe 4d30 1abe e253 3cbe
00000360: 70ab f0bd 7479 5f3d de96 9fbe f0a1 f83d
00000370: ae9e 9d3d 44ed 253f 912e 55bb 97b0 243e
00000380: a752 493e 94e5 b03c 157a 05be eeb1 c0bd
00000390: 5f70 87be 9f27 6dbe 960a 8d3e f4c0 133e
000003a0: 8541 65be d384 413c 3b1b b23c 7782 c93d
000003b0: dcb8 96be a3e8 80be 8731 113e 8854 c2be
000003c0: f8b1 e13d e31a 9e3d c7ed 043f deec dbbd
000003d0: 2d2a 3b3e 8591 9cbd d8a9 d53d 574e d5bd
000003e0: 2bfe 4dbd 070a 813e 3809 56be b5ee 3b3e
000003f0: bbed 3c3e 3f9e 88bd 8f3a a2be c89f c93e
-0.52932274 0.52830756 -0.051302742 0.24373719 0.048715364 -0.0078748455 0.05947719 0.30690157
-0.012631004 -0.03951006 -0.087583706 0.52447325 0.24224535 0.12195884 -0.08415265 -0.07284325
-0.014486884 -0.0944094 0.11219727 0.096608065 0.07119695 0.15712355 0.14678706 -0.27819058
0.014252561 -0.023026686 -0.11355295 0.12620163 0.03513814 -0.15901391 -0.14289977 0.26156923
0.038967982 0.18547669 -0.30416328 -0.25761858 -0.08360609 -0.19223006 -0.03658554 0.11324655
-0.21847776 -0.18149178 0.19451275 0.14792427 0.19929807 -0.27337894 -0.037493844 0.0104215015
0.03475695 0.095145784 -0.01840366 0.04491059 0.18929584 -0.04796071 -0.22760595 0.6235325
0.15543017 0.15037456 0.0876619 0.28113294 0.19995289 0.13377912 0.15208049 0.20062971
-0.2177011 -0.17286375 0.49054176 -0.29577258 -0.06335637 -0.19201662 0.25292403 -0.09926763
-0.21351852 -0.091570616 0.23555715 -0.15685837 -0.029139552 0.22448261 0.3596397 -0.33528876
-0.08835498 0.0854425 -0.050033905 0.19483542 0.17523415 0.20335788 -0.21551119 0.00889028
0.55458736 -0.41721818 0.47724864 -0.056741644 -0.14586252 0.054348983 0.22374876 -0.04330061
0.2772515 -0.16933644 0.051305063 0.09702229 -0.028409677 0.3757337 0.19117534 -0.17226869
0.10344762 -0.3313151 0.24991958 -0.033136975 0.1473665 0.19923139 0.25060025 0.13856402
-0.24141923 0.022107631 -0.0537473 -0.13530655 -0.20061767 -0.26783824 -0.1330855 -0.18131588
-0.1374727 0.2611695 -0.47560826 0.2202974 -0.29106885 0.19815257 -0.038964804 0.17256825
0.12415245 0.091235176 0.041556936 -0.17856008 -0.23412713 -0.06230648 -0.2370863 -0.17142826
-0.23787898 0.18113844 -0.2866821 -0.14939411 -0.1630704 0.047463693 -0.037563313 0.32260007
0.010194597 0.45757768 -0.13711026 0.012627116 -0.18615422 -0.2056946 -0.0072884494 0.3616116
0.06461037 0.13672394 -0.19338113 0.33624992 0.34350345 0.15143903 0.08978095 -0.17587134
-0.10412218 0.13358754 0.30861276 0.15858419 -0.14087865 -0.50545615 0.62259585 -0.15801467
0.18105015 -0.31068864 -0.23879068 0.061548356 0.25948346 -0.08006038 0.17493272 0.07142912
0.60299987 0.028174568 0.05189187 0.2126091 0.25154218 -0.23017766 -0.025651429 -0.17024092
-0.23910354 0.27446643 0.03412417 -0.30004105 -0.41473457 0.020862488 0.15921819 -0.12505397
-0.08647876 0.13156386 0.33417934 0.08123535 0.31694543 0.108449996 0.37322322 -0.48173624
0.3193539 0.15334164 0.056384344 -0.22289513 -0.13872226 0.32797432 0.3096851 0.11942721
0.021964258 -0.17662345 0.24226937 -0.15539636 0.08808687 -0.17024802 -0.15057488 -0.18391374
-0.11751449 0.054559186 -0.3116979 0.12140262 0.076962814 0.64815164 -0.0032528976 0.16082989
0.19660436 0.021593846 -0.13034852 -0.094089374 -0.2645292 -0.23159645 0.2754714 0.14429075
-0.22388275 0.011811453 0.0217415 0.09839337 -0.29437912 -0.25177488 0.1417905 -0.37955117
0.11020273 0.07719972 0.5192532 -0.10738538 0.18277808 -0.07644943 0.10432786 -0.10415333
-0.05029122 0.25202963 -0.20901954 0.18352778 0.18450062 -0.06670808 -0.31685302 0.39379716

linear1.bias f4 [256]
00000000: 540e ab3e b584 74bd 6413 193e 3289 363e
00000010: 91fd f93d c108 19bc d088 623e 3a15 72bd
00000020: 6449 a33e a296 2b3e f1eb 333e 6ea7 043c
00000030: 53a2 e83d a2b7 f23d 0e3f b0bd a82c 813e
00000040: bd72 dcbd eefc c5bd 1a45 e73d 924d 96bc
00000050: d236 783e 6182 113e dcc3 2bbe 65be 23bc
00000060: d226 33be 3ac1 943d 3b46 29be 933e fd3b
00000070: bfc0 0cbe 2cc7 6cbe 6fee 4ebd 51af 9f3d
00000080: dc14 453d 7880 c83e f2ed 6f3e 194d 583d
00000090: e26a a8bd d3a7 dbbc caf8 6e3e aec5 883e
000000a0: ae2b 22be 0b17 733e 193b 66bd f252 e5bd
000000b0: 89c0 6abd 2f0f 563d 7e01 0bbe a342 a7bd
000000c0: b765 19be 0f1d 65bc 7c5c 2dbb c603 f3bd
000000d0: 65b3 84be 7e52 2e3e c7d9 d43c 5495 623d
000000e0: 4113 dfbd b151 22bd 17ab a5be 93f4 ccbd
000000f0: 8709 8c3d 686b 493e 9676 553e 582e 4e3e
00000100: cd12 96be 1a52 aabd 1477 94bd 36ee 843d
00000110: 2e60 90be fd2c 04be 9a8a bfbe 6f80 2a3e
00000120: 7177 8ebe cd6e a2be ea63 06be d252 e2bd
00000130: c6e7 24be 289c 59be 8052 78be 192d 033e
00000140: 1147 51be bccc 03bd 8020 923e 84fb b03d
00000150: d912 02be e67e 843e 0ef1 41be dc82 2d3e
00000160: 9ed6 30be 8d14 a1bc a074 59be a89d 8b3e
00000170: ed90 d53c fd97 9b3d d5f8 abbd 6812 ab3d
00000180: ce20 923d 280e 14bd 568e 2b3c 306b 2a3e
00000190: 0797 09be e0c1 4f3d 7478 a8bc dd0a a0be
000001a0: eeb2 4abe 7709 59bd 1dc4 34be bbf4 b8bc
000001b0: 120a 533d 570c 753d d6bf 7fbe b7a3 47be
000001c0: 48e2 24be bbb5 e9bd d908 563e 1090 bfbd
000001d0: c1e7 a53d 5907 58be 8469 913e 9213 febd
000001e0: 66b8 8c3d af37 7a3d b0b6 fabd c7f1 f7bd
000001f0: 679c d0bd efb9 173e 1c25 aebe 6426 af3d
00000200: e12b 393e ae99 f73c b075 41be ccf2 9f3d
00000210: d275 a8bb eb83 523a ff58 4abe 5f06 66be
00000220: 1871 413d 189a 0a3c 2be8 62bd 5c62 963e
00000230: 370c 6bbc ceb0 9ebd 4817 803d 30e6 063e
00000240: d668 383e e766 1f3e d800 2cbd 862e 933c
00000250: cf9f 33be c1cf bb3d 1909 27be 6564 2a3e
00000260: 2d80 dbbd 5b6d a9bc 3586 8fbd c5db 8a3e
00000270: 6eb0 073e 0449 4fbc a1f9 713e bc8f 893d
00000280: 7309 5a3e 1de7 2a3e df80 7e3e 041b 203e
00000290: b280 f7bd 2fff 453e d790 383e 2834 933d
000002a0: b2d9 983e 7a08 27be f0ac 2dbb 2e69 7cbb
000002b0: 2321 323e 1bb5 85be f68d 84bd 19b9 52bd
000002c0: 60f5 87be a2b3 7cbe 3b4c b83e f3f5 953e
000002d0: 4f2d 13be 62fb 36bd d397 fb3b 2c31 96be
000002e0: 22c1 3bbe 20d3 76bd 4b68 1f3e 3072 4fbd
000002f0: 2ace 023e ba17 e33d 0875 7c3e 56b3 70bd
00000300: d31f 3c3e 3705 0d3c 2db9 20bc 37f7 a1be
00000310: b58e 603e 76b6 873e f492 01be ee8a 6d3e
00000320: ff6a 3e3e 696b 68be 3629 75be 0b62 563e
00000330: f6ce f23c edba b7be 3119 5abe be3f a7bd
00000340: bded edbd f8f4 1a3e b5ae ce3d 2e10 64bd
00000350: d275 6cbe 0b53 2e3c 03bf 3c3e fa63 8abc
00000360: 3eaa d0bd 736a 80bd 87e6 20be 7af0 503c
00000370: efc5 11be b6be 9b3d cf3f 413e 25ef acbd
00000380: f56c f13d 061e 203d 2f90 8cbe 3dc8 08be
00000390: 6b6c 41be ca00 d23d 1929 4dbe 9e7f 7a3e
000003a0: 08c7 723e 2e72 143c 664a 1bbe bd8f f13d
000003b0: 5a53 723d c0e9 083a 898d a13d a1a6 543e
000003c0: 015a 1dbe ce01 b5be aed9 2ebd 31ee 943e
000003d0: 1b64 b1bd 889b 5c3e 5e97 2c3e 3feb 7fbe
000003e0: 1f12 39be eb6b 72bd 317c 783e f292 a1be
000003f0: abc7 8cbd 5c4d 59be 5405 09be b74d 22be
0.3340937 -0.05969687 0.14948803 0.17825773 0.12206567 -0.009340466 0.22122502 -0.059102274
0.3189193 0.1675668 0.17570473 0.008096559 0.11359086 0.118514314 -0.08605777 0.25229383
-0.10764072 -0.09667383 0.11292477 -0.018347535 0.24239662 0.14209892 -0.16773933 -0.009994124
-0.17495278 0.072634175 -0.16530697 0.0077284067 -0.13745402 -0.23122853 -0.050520357 0.07797111
0.048115596 0.39160514 0.23430613 0.0528079 -0.08223511 -0.026813423 0.23337093 0.26713318
-0.15836975 0.23739259 -0.056208704 -0.11197461 -0.057312522 0.052260574 -0.13574788 -0.08167007
-0.14980207 -0.013983979 -0.002645283 -0.11865954 -0.25918117 0.17023656 0.02598275 0.05531819
-0.10892344 -0.03962869 -0.32357094 -0.10007586 0.06837755 0.19669878 0.20846018 0.20134866
-0.2931122 -0.08316441 -0.07249275 0.06490748 -0.2819838 -0.12907787 -0.37410432 0.16650556
-0.27825502 -0.3172516 -0.13124052 -0.11050953 -0.1610404 -0.21250975 -0.24250221 0.12810172
-0.20437266 -0.03217767 0.2854042 0.08641723 -0.12702502 0.25878066 -0.18939611 0.1694445
-0.1726937 -0.01966312 -0.21235895 0.2726872 0.026070083 0.07597349 -0.0839707 0.0835312
0.07135163 -0.036146313 0.010470947 0.16642451 -0.13436519 0.050722003 -0.020565249 -0.31258288
-0.19794819 -0.052987542 -0.17652936 -0.022577634 0.051523276 0.05982622 -0.24975523 -0.19496046
-0.16101944 -0.114116155 0.20901813 -0.093536496 0.08100844 -0.21096553 0.28400815 -0.124060765
0.06871109 0.06108826 -0.12241876 -0.12106662 -0.101860814 0.14817022 -0.34012687 0.08552244
0.18083145 0.030224647 -0.1889255 0.07809982 -0.0051409984 0.00080305216 -0.19760512 -0.22463368
0.047226995 0.00845959 -0.055397194 0.29371917 -0.014346174 -0.077485666 0.062544405 0.13173747
0.18008742 0.15566598 -0.041992992 0.01796652 -0.17541431 0.09170485 -0.16312064 0.1663986
-0.10717807 -0.020682028 -0.0700802 0.27120796 0.13250896 -0.012651686 0.23630382 0.06716868
0.21292667 0.16689725 0.24853848 0.15635306 -0.120850936 0.19335626 0.18024002 0.071876824
0.29853588 -0.16311827 -0.0026500784 -0.003851484 0.17395453 -0.26114735 -0.064723894 -0.051446054
-0.26554394 -0.246779 0.3599566 0.29289207 -0.14372753 -0.04467333 0.007678011 -0.2933439
-0.18335393 -0.06025994 0.15567128 -0.050646007 0.12773958 0.1108851 0.24654019 -0.058764778
0.18371515 0.0086072 -0.009809774 -0.31633922 0.21929438 0.26506394 -0.12653714 0.23197529
0.18595503 -0.22697224 -0.23941502 0.20935838 0.029639702 -0.358848 -0.21298672 -0.08166455
-0.116176106 0.1513251 0.100919165 -0.055679493 -0.2309182 0.010639916 0.1843224 -0.016893376
-0.10188721 -0.062703036 -0.15712939 0.012752647 -0.14235662 0.076047346 0.18871997 -0.08444051
0.1178836 0.039091133 -0.27453753 -0.13357635 -0.18889014 0.10254057 -0.20035209 0.24462745
0.23708737 0.009060426 -0.151651 0.11794994 0.05916152 0.000522282 0.07888324 0.20766689
-0.15366365 -0.3535294 -0.042688064 0.29087976 -0.08661672 0.21543705 0.16854617 -0.24992083
-0.18073319 -0.05918495 0.24266125 -0.31557423 -0.06874021 -0.21220917 -0.13380939 -0.15849958

linear2.weight f4 [3, 256]
00000000: 5c97 ee3d 3f66 05be 693b 3f3d 3b98 203d
00000010: b2fc 05bc 9b07 8bbe 0358 49be 1552 16bd
00000020: f357 1cbe a1f7 a9ba bdec 24be ad7a 1bbe
00000030: a914 163e 6c03 64be e318 57bd 1fb1 c83d
00000040: 3a25 91be 838d 7f3d 9eff 4bbe a493 ab3d
00000050: 0322 b4bc 9cf3 99bd 6eca 7abe a969 763c
00000060: f0ea c8bc 1e79 c63d 08cd 32be e381 6abd
00000070: d13f abbe e0ac 52bd de9a 92be 2466 79bd
00000080: 7ce6 1fbe be17 fe3d 39c7 f13c 46e4 b6bd
00000090: 8873 223e 1d45 543e 3b34 e0bd fb95 f9bd
000000a0: 5c2f 5cbd af52 563e c831 ad3d 7673 10be
000000b0: 56aa 00be 541d 29be 6994 99bc cf6e 27be
000000c0: dcaf bc3d 9b62 19be 404c 993c 03e6 6f3e
000000d0: 1de3 57bc d90a 2c3e 2343 febc 47ac 26be
000000e0: 17f1 48be 1ff1 cb3d 5ebb c93c 6c71 b1bc
000000f0: bc71 1bbd 3afd 183e c838 b0bd ec9e 49be
00000100: 2919 45be ba57 0abc b341 6a3e aace 8ebd
00000110: 912f e6bc 3092 933d 31df 69bc 6d61 79bd
00000120: e57f 0ebd a73c cf3a 7ea4 60be 6ac0 793e
00000130: 45fe 98bd 992c 16be 1b30 72be 8670 993d
00000140: d923 a13d 7356 3e3d ff93 08bd 8a80 babd
00000150: 8e82 02be d185 91bd ed1c 82bd 8296 733a
00000160: 7b72 433d 31a9 ec3d 28f8 28bd e467 b53d
00000170: 81f1 18be c72e 1e3e 7b13 9b3d fba0 67be
00000180: 8de9 d2bd 0fae 44be 14d4 5c3e 3a6c bc3c
00000190: c8b5 41bc 8301 8ebe 995a 02bd 9d96 eb3b
000001a0: 7b4a ec3c 2fe7 77be 7671 4dbe 9d69 5dbe
000001b0: 3b8b 653e fc9d f6bd 53e3 233c 7dc2 49be
000001c0: 6e01 06be f51c 3dbe 2354 6a3d 5658 87be
000001d0: decb 9c3e 12d4 1bbe 5c16 e5bd 6111 b5bd
000001e0: 6dd2 0fbe f4d2 d33d 3efc 32bd 2fa4 d9bd
000001f0: 550f 9c3c 1197 bcbd 8fb6 a63c b2b6 9d3d
00000200: 8c92 a43d 1778 4cbd 33e9 53be 9547 01bc
00000210: 4bfe 8d3d 34c3 e7bd c4b7 39bc dcd8 3c3d
00000220: bedd 223c d0e6 a33b f0d2 26be 407c f3bc
00000230: bbfc 7fbe c919 3f3e 91cb 04be ce3e a13d
00000240: e11d 15be 0974 b7bd 8030 efba 0493 c93d
00000250: 019c 58bd 22c2 653c 578d 48be d233 b03d
00000260: b662 96be e059 1cbe ffb0 35bc ab2e b93d
00000270: 3514 39be 1691 b9bd d1e8 013e a421 42be
00000280: f744 00bd 7eb3 a5bc 527d 69bd a7e2 223e
00000290: c1e6 313e de3c 00be 3f98 b2be eddf f13d
000002a0: 06c4 7d3c b83b bd3c d1ff 283c add7 e0bd
000002b0: c8b0 0ebe 8fc9 abbd 3d1f 643e 409b afbc
000002c0: 8b28 5abc 0c85 a83c fea1 8d3e 3cb5 543c
000002d0: c5b6 993d 84ac 463e 0f97 0b3d 932b febc
000002e0: 6082 81bb 4fe1 483e 3512 2e3e ef33 93bd
000002f0: 073c 3fbe e587 cdbd 63cc ffbc ccc6 09be
00000300: d600 5bbe 3664 f1bd cc2b d8bd 7267 e7bb
00000310: 4e32 2c3e 82b1 2cbd 35aa be3c 6129 24bd
00000320: c976 72bd 8374 e4bc 046b 493d 89c2 91bd
00000330: e7a2 ea3d 1ec0 71bd 22a0 4bbe 2cd2 303e
00000340: 015b 863d 88e0 dcbd 12bc 88be b452 d93d
00000350: a128 17bd 844a 93bd 46e4 58bd 4a32 03be
00000360: 4314 5cbe eced 673e 8c54 51be 783c 133d
00000370: 9c9b ef3d 40e4 d43c 10b5 813c 0af1 90be
00000380: cb1c aabd cda1 1ebe 950b 4a3d 3082 fc3d
00000390: 8a7e 66be ab2a afbd 18bb eebd 6861 893d
000003a0: 6f04 933c 3d0d 89bc 58bf c23d 1dc7 493e
000003b0: 2c4d 33be 2718 50bd 2291 69bc bfce 21bb
000003c0: fd47 71be f45f 963c ea5d 513e 9ef3 8ebd
000003d0: f5cb 663e c7c2 6a3c 3c96 b3bd 2b25 343d
000003e0: c8bb c1bd 8d44 d1bd 656f 8abd 8ea6 9dbc
000003f0: c3f4 8dbd 84b4 19be 7400 5dbe d997 8c3e
0.11649963 -0.13027285 0.046687517 0.03920768 -0.008177923 -0.2715424 -0.1966248 -0.036699373
-0.15267925 -0.0012967476 -0.16105933 -0.15183516 0.14656319 -0.2226693 -0.05251397 0.09799408
-0.28348714 0.062390815 -0.19921729 0.083777696 -0.021988874 -0.07517168 -0.24491283 0.01503984
-0.02452609 0.0969107 -0.17461026 -0.057252776 -0.33447126 -0.051434398 -0.2863378 -0.060888425
-0.15615267 0.12406872 0.029513942 -0.089302585 0.15864384 0.2072949 -0.10947462 -0.1218681
-0.053756103 0.20929979 0.08456761 -0.14106545 -0.12564978 -0.16515094 -0.018747525 -0.16350864
0.0921323 -0.14979021 0.018713117 0.23427586 -0.013176707 0.16801013 -0.031037873 -0.16276656
-0.19623218 0.099580996 0.024625476 -0.02166053 -0.037950262 0.14940348 -0.0860458 -0.1968953
-0.19247879 -0.008443767 0.22876625 -0.06973012 -0.028098853 0.072056174 -0.014274404 -0.060883928
-0.03478994 0.0015810922 -0.21937749 0.24389806 -0.07470373 -0.1466545 -0.23651163 0.07492165
0.078681655 0.046469163 -0.033344265 -0.09106548 -0.12745115 -0.071056016 -0.063531734 0.0009292142
0.0477166 0.11555708 -0.041252285 0.08857706 -0.14935876 0.15447532 0.07572075 -0.22620003
-0.102984525 -0.19207023 0.21565276 0.023000825 -0.011823125 -0.27735528 -0.031824682 0.0071895854
0.028844109 -0.24209283 -0.20062813 -0.2162232 0.22416393 -0.12041852 0.010002929 -0.19703098
-0.13086483 -0.18468077 0.057209145 -0.26434582 0.30624288 -0.15217617 -0.11185905 -0.088412054
-0.14045115 0.103429705 -0.04369759 -0.10627019 0.01905028 -0.09208501 0.020350723 0.07700862
0.08035764 -0.049919214 -0.20694427 -0.007890602 0.06933268 -0.11316529 -0.011335317 0.04610525
0.009940563 0.00500188 -0.16291404 -0.029722333 -0.24998753 0.1866218 -0.1296828 0.07873307
-0.14562179 -0.08957679 -0.0018248707 0.09842494 -0.052883152 0.014023336 -0.19585167 0.08603634
-0.29372185 -0.1526866 -0.011089562 0.09042104 -0.18074115 -0.09060876 0.12686469 -0.18958145
-0.03131577 -0.02022719 -0.05700428 0.15906774 0.17373182 -0.12523219 -0.3488178 0.118102886
0.01548863 0.023099765 0.010314898 -0.10978637 -0.13934624 -0.083880536 0.22277541 -0.021436334
-0.01331533 0.020571254 0.27662653 0.012982663 0.07505564 0.19401747 0.034079608 -0.031026637
-0.0039523095 0.19617198 0.16999133 -0.0718764 -0.18675242 -0.100356854 -0.031225389 -0.13454741
-0.21387038 -0.11786692 -0.105552286 -0.007061892 0.16816065 -0.042161472 0.02327452 -0.040078525
-0.059195314 -0.027887588 0.049174324 -0.07117183 0.114568524 -0.059021108 -0.19885305 0.17267674
0.06560326 -0.107850134 -0.26705986 0.106114775 -0.03690398 -0.07191947 -0.052952074 -0.12812153
-0.21492104 0.22649354 -0.20442408 0.03594634 0.11699602 0.025987744 0.015833408 -0.28308898
-0.08306273 -0.1549141 0.04932745 0.12329519 -0.22509208 -0.0855306 -0.11656779 0.06708032
0.01794645 -0.016729945 0.09509152 0.19704862 -0.17509907 -0.050804283 -0.014255794 -0.002468988
-0.23562618 0.0183563 0.20445982 -0.0698006 0.22538741 0.014328665 -0.08768889 0.04398076
-0.094596446 -0.10218153 -0.06759528 -0.019244459 -0.0693145 -0.15010267 -0.21582204 0.274596

linear2.bias f4 [3]
00000000: 2600 33bd b34f dcbd 4c83 b2bd
-0.043701313 -0.10757389 -0.08716449
